model_best.pth (torch, 24647 bytes, 6 tensors)

fc1.weight f4 [64, 18]
0.0006032417 -0.11595023 0.20261675 0.14838855 0.03632787 0.16423969 0.13362831 -0.2860636
0.34018475 -0.628947 0.036886513 -0.35972813 -0.0060599786 0.017649272 0.14977905 0.08627921
-0.14575207 -0.024359174 0.31977078 -0.09531359 0.2558277 0.2874286 0.17286374 0.052789204
0.14566498 0.10712059 0.013320763 0.08656507 -0.074669175 -0.18893643 -0.11611823 -0.18310572
-0.014128528 -0.024559895 0.088376924 0.27608708 0.10217505 -0.08356704 -0.16594385 -0.09364238
-0.17430116 0.08294793 0.16773947 0.18488903 -0.07972083 0.21013218 0.23396564 0.18184863
-0.090200774 -0.040002376 -0.09297702 -0.013773981 0.15179145 -0.13009042 -0.031365596 -0.011573553
-0.16345108 0.27177233 0.0068031326 -0.07522151 0.22483361 0.25280118 -0.18812677 -0.17658716
-0.10790355 -0.19577113 -0.28381193 -0.22142348 -0.19444089 0.001545607 -0.28099817 -0.06931949
-0.01654727 -0.0048864274 0.18955047 -0.0556177 0.047937 -0.090906985 0.10429519 -0.060269807
0.08919652 -0.14566776 0.05222874 -0.27552712 0.33749226 0.3131723 0.20642294 -0.1957518
-0.24002084 -0.07110421 -0.028491804 0.07853567 -0.3262513 -0.18639188 0.22039628 0.60821325
-0.026875766 -0.18402992 -0.23430127 -0.014002524 -0.04947826 -0.11697383 0.006842933 -0.07941915
-0.30017567 -0.01682783 -0.2337062 -0.030912904 -0.19408128 0.10696329 0.19080132 0.03590398
0.017304666 -0.08269156 0.08032364 -0.114123665 -0.16035822 -0.14702536 0.08035929 -0.34373227
0.068887316 -0.1511442 -0.2436173 -0.25200495 0.1530113 -0.41168576 0.10769234 -0.009471467
-0.024041388 -0.23676199 -0.048148815 0.22995248 -0.07572422 -0.14682043 0.15636219 0.12890749
-0.21570666 -0.068211526 0.0009217167 -0.38945436 0.16841389 -0.17409219 0.1577041 0.34922746
-0.17596164 0.12382373 -0.26081878 -0.034291826 0.029448692 -0.010554329 -0.16428167 0.0046045445
-0.040654384 -0.159753 0.29808602 -0.3403746 0.13863255 0.13353339 0.26597834 -0.1674195
-0.110986255 0.29360965 -0.11678233 0.22798163 0.08270092 -0.13676354 0.053744018 0.019901283
0.041050285 0.23110604 -0.21423496 -0.13843246 0.11767314 -0.12109112 0.05171555 -0.32174298
-0.17297189 -0.074140474 -0.103827335 0.009833084 0.052293733 -0.07102194 0.046971954 -0.11381844
-0.14133792 -0.29405215 -0.0726227 0.21643649 -0.09335604 -0.023768941 -0.22349319 0.44330466
-0.2552725 0.15988855 0.17263496 -0.18330242 0.055129115 0.0012109928 0.2546776 -0.3317885
0.32388732 0.042469352 -0.3692145 0.08135892 0.24787004 -0.12288883 0.3824458 0.36926445
-0.047638196 0.2036321 0.06763803 -0.20809697 0.264334 0.08981532 -0.1361088 0.023142975
0.043923028 0.22395077 -0.3268322 0.21061815 -0.06922673 0.042630922 0.06926091 -0.23711011
0.09703751 -0.020217294 -0.10956577 -0.031697273 0.17627919 0.13646936 -0.16359752 -0.04880846
-0.14669383 -0.1111036 -0.18720092 -0.030518256 -0.31870395 -0.2125061 -0.12880225 -0.17189494
-0.036583606 -0.028531099 -0.20675144 -0.034074407 0.03436132 -0.036871698 0.024872556 0.40863442
-0.11148913 -0.20823827 -0.22534637 0.18898736 0.005695093 0.08921534 0.14846137 0.063017175
00000000: dd22 1e3a 5077 edbd c47a 4f3e 2bf3 173e
00000010: 88cc 143d 732e 283e dcd5 083e ee76 92be
00000020: b22c ae3e ac02 21bf 5016 173d 492e b8be
00000030: c992 c6bb 3595 903c ae5f 193e 28b3 b03d
00000040: 0840 15be e48c c7bc ffb8 a33e c533 c3bd
00000050: d9fb 823e d729 933e 3103 313e 7e39 583d
00000060: 3329 153e 0a62 db3d 543f 5a3c 0749 b13d
00000070: 27ec 98bd 8d78 41be 65cf edbd 1180 3bbe
00000080: 577b 67bc d531 c9bc f6fe b43d 495b 8d3e
00000090: 2741 d13d 3225 abbd 2fed 29be 93c7 bfbd
000000a0: 017c 32be 9be0 a93d e5c3 2b3e 8d53 3d3e
000000b0: ad44 a3bd e42c 573e b094 6f3e 8736 3a3e
000000c0: 2fbb b8bd 88d9 23bd bc6a bebd 43ac 61bc
000000d0: 386f 1b3e 6c36 05be 3679 00bd 009f 3dbc
000000e0: b85f 27be be25 8b3e d0ec de3b bc0d 9abd
000000f0: c83a 663e 286f 813e 4ea4 40be 44d3 34be
00000100: 89fc dcbd 3a78 48be cc4f 91be d6bc 62be
00000110: 831b 47be f795 ca3a fede 8fbe 60f7 8dbd
00000120: 248e 87bc 531e a0bb 8519 423e 63cf 63bd
00000130: 9659 443d 712d babd b798 d53d 79dd 76bd
00000140: aaac b63d ee29 15be ceed 553d e411 8dbe
00000150: c9cb ac3e 1f58 a03e 8960 533e 2973 48be
00000160: 06c8 75be 169f 91bd a567 e9bc 4fd7 a03d
00000170: 690a a7be 83dd 3ebe 90af 613e ddb3 1b3f
00000180: 912a dcbc 5772 3cbe acec 6fbe d86a 65bc
00000190: b7a9 4abd fa8f efbd af3a e03b 82a6 a2bd
000001a0: a0b0 99be 84da 89bc ae50 6fbe 0f3d fdbc
000001b0: 3ebd 46be 920f db3d 6c61 433e 0d10 133d
000001c0: 84c2 8d3c 315a a9bd b880 a43d abb9 e9bd
000001d0: f234 24be d18d 16be 6993 a43d adfd afbe
000001e0: cb14 8d3d 8cc5 1abe d076 79be cb06 81be
000001f0: ffae 1c3e 7ac8 d2be cd8d dc3d 362e 1bbc
00000200: 72f2 c4bc bc71 72be b137 45bd aa78 6b3e
00000210: 4d15 9bbd 1858 16be 691d 203e 5300 043e
00000220: 35e2 5cbe 7cb2 8bbd 5c9f 713a 9066 c7be
00000230: b174 2c3e 3945 32be 2f7d 213e f1cd b23e
00000240: 4a2f 34be 4c97 fd3d 0a8a 85be 9675 0cbd
00000250: 623e f13c 10ec 2cbc 7439 28be b8e1 963b
00000260: 3685 26bd 4a96 23be bb9e 983e 9445 aebe
00000270: b1f5 0d3e fabc 083e 502e 883e 0470 2bbe
00000280: c34c e3bd 0154 963e 932b efbd 0474 693e
00000290: 1a5f a93d be0b 0cbe b022 5c3d 0408 a33c
000002a0: 5824 283d 10a7 6c3e 6960 5bbe 3dc1 0dbe
000002b0: 9dfe f03d 9ffe f7bd afd3 533d 7fbb a4be
000002c0: 8b1f 31be f6d6 97bd 6da3 d4bd f21a 213c
000002d0: f431 563d f373 91bd aa65 403d a419 e9bd
000002e0: e3ba 10be 018e 96be 36bb 94bd 87a1 5d3e
000002f0: 7431 bfbd 15b7 c2bc 66db 64be d4f8 e23e
00000300: 14b3 82be d3b9 233e 38c7 303e a1b3 3bbe
00000310: 11cf 613d 2dba 9e3a 1a65 823e 2fe0 a9be
00000320: 8fd4 a53e 58f4 2d3d af09 bdbe 819f a63d
00000330: a5d1 7d3e 24ad fbbd f0cf c33e 3b10 bd3e
00000340: 4520 43bd ef84 503e cf85 8a3d 5f17 55be
00000350: c956 873e 18f1 b73d 1b60 0bbe 5696 bd3c
00000360: a2e8 333d 5a53 653e 8d56 a7be 49ac 573e
00000370: bec6 8dbd c39d 2e3d aad8 8d3d fecc 72be
00000380: 9abb c63d bd9e a5bc 0564 e0bd 00d5 01bd
00000390: 8882 343e a0be 0b3e 1c86 27be 61eb 47bd
000003a0: e836 16be 498a e3bd 99b1 3fbe 6c01 fabc
000003b0: 2a2d a3be 339b 59be bde4 03be 3a05 30be
000003c0: b1d8 15bd 0dba e9bc a6b6 53be 9b91 0bbd
000003d0: 75be 0c3d c706 17bd 88c1 cb3c 8838 d13e
000003e0: 6a54 e4bd 6a3c 55be 33c1 66be e785 413e
000003f0: e79d ba3b 88b6 b63d 4206 183e 260f 813d

fc1.bias f4 [64]
0.048207074 -0.3582853 -0.7700353 0.16743928 -0.44800836 -0.3014771 0.37764972 0.074467205
-0.38586357 -0.042217273 -0.012232313 0.033447668 0.28028178 -0.023955079 0.09799092 -0.057247344
0.20000128 -0.31710732 -0.02923095 0.3001308 0.10947333 -0.45707154 -0.3442916 0.119546376
0.053188633 0.60264856 -0.16036023 0.29256287 0.16218409 0.13586955 -0.12000963 0.047440536
-0.7595028 0.5278815 0.046588138 -0.45809686 -0.39192268 -0.44027433 0.0035770058 0.034346025
0.02826162 -0.018590327 0.32772917 0.08093591 0.27628466 0.16519393 0.7793833 -0.4919199
0.06861854 0.6850869 0.5998136 -0.07295579 0.09134598 0.058685474 0.19969702 -0.01285818
0.055082817 0.30212346 -0.85758 -0.3436073 -0.49705258 0.11557462 -0.12218188 0.08199021
00000000: c874 453d 2c71 b7be 0921 45bf 3475 2b3e
00000010: 5a61 e5be 355b 9abe 4e5b c13e 4382 983d
00000020: e98f c5be 05ec 2cbd 0a6a 48bc 6c00 093d
00000030: 1881 8f3e 713d c4bc 77af c83d 317c 6abd
00000040: 23cd 4c3e e45b a2be bf75 efbc bfaa 993e
00000050: 8e33 e03d 4805 eabe fd46 b0be bbd4 f43d
00000060: 53dc 593d 2d47 1a3f 7935 24be cdca 953e
00000070: 9613 263e 6321 0b3e 9cc7 f5bd 0251 423d
00000080: c76e 42bf 3e23 073f 34d3 3e3d ac8b eabe
00000090: 17aa c8be a36b e1be 336c 6a3b 6bae 0c3d
000000a0: ea84 e73c be4a 98bc 1ecc a73e bac1 a53d
000000b0: 2f75 8d3e 9928 293e aa85 473f eddc fbbe
000000c0: e187 8c3d db61 2f3f 628d 193f d869 95bd
000000d0: 9a13 bb3d 2e60 703d 607d 4c3e 1eab 52bc
000000e0: 859e 613d edaf 9a3e 5d8a 5bbf 4ced afbe
000000f0: ad7d febe 63b2 ec3d 7e3a fabd 7cea a73d

fc2.weight f4 [64, 64]
-0.05418631 0.010814662 -0.09123622 0.041078296 -0.017553134 0.036933865 -0.1309495 0.20587692
0.016003184 0.045144998 -0.24810037 -0.0903775 -0.010760912 0.1345904 0.07702534 0.038356464
-0.10561305 -0.10427045 0.013284386 -0.12698962 -0.07984706 -0.041506466 -0.06724811 0.1643593
-0.054640304 0.0724483 -0.2634706 -0.020368036 -0.012135908 -0.22556129 0.07201267 -0.047231466
-0.060993973 0.09609998 0.103135966 -0.024069477 0.12521166 0.035174847 0.11741989 -0.09082822
-0.18946123 -0.057955146 0.079406515 0.05458061 0.13145414 -0.08269253 -0.021420032 0.014883492
0.06441892 -0.039270632 -0.036898375 -0.034628276 -0.059171908 -0.20579295 0.11106027 0.1361771
0.15643574 -0.019815007 -0.009574554 -0.04644405 0.09461118 -0.03910211 0.012443327 0.09323617
-0.39798757 -0.056763694 0.06820728 0.13952728 -0.12202626 0.0969746 0.05167924 -0.020002058
0.1534138 0.061110243 -0.19233707 0.41830373 0.050386112 0.079288125 0.10584902 -0.031355936
-0.019203302 0.09021565 0.016210344 0.08255914 0.04977436 -0.02881877 -0.020662965 0.0169639
0.01701066 -0.13682787 0.077329636 -0.0664238 -0.010648175 0.022428086 -0.07152781 0.0742409
0.026964681 0.029043995 0.12920307 0.06831386 -0.079915784 -0.04663078 -0.11556575 0.0012493534
-0.018675 0.048093617 -0.03505636 0.011515161 -0.06446649 0.022484668 0.13238299 -0.070544615
0.08587692 0.007268223 -0.066296436 -0.04981775 -0.11712279 -0.25714698 0.013087989 0.093427666
-0.20676692 0.040867735 0.17817637 -0.1459337 -0.0049444567 -0.096552745 -0.08548466 -0.06530863
0.32282478 -0.04504428 0.14315948 -0.07560228 -0.1677256 -0.03499611 0.02739149 -0.39299917
0.047608357 0.16228512 0.0021913098 0.12361305 -0.030499635 -0.15202361 0.064583555 0.054335162
-0.055099215 0.06672383 0.019325305 0.0045853844 -0.13078336 -0.053093653 -0.027166741 -0.02289546
-0.21714668 -0.04465622 0.054247133 0.09650266 0.035019115 -0.040219896 -0.12989604 0.13333917
-0.078191936 0.013645976 -0.041785985 -0.19917434 0.14370354 -0.10187739 -0.07037731 0.29750693
0.017127665 -0.0061216806 0.041177027 -0.17096345 -0.271154 -0.13493721 0.0818263 0.13787234
-0.0077771503 0.009570805 -0.01263977 0.03554329 -0.093024865 -0.20412649 0.17281918 -0.048603293
-0.07387813 -0.03047305 -0.096271 -0.024212116 -0.0052815042 0.14711633 -0.08911675 -0.09882157
-0.18918169 -0.12247474 0.17685893 -0.070755735 -0.04034753 -0.1675154 0.061219797 0.08923077
0.13282014 0.029463764 -0.10391471 -0.011987217 -0.026206132 -0.09011453 0.034424957 0.121188425
0.13793296 0.060281206 -0.16571926 0.10676 -0.027139144 -0.15899986 0.036409028 -0.038220447
-0.029245697 -0.021844296 -0.11284173 -0.0073125516 -0.17323537 0.0972175 -0.006094373 -0.14594847
-0.2562955 0.10522443 0.08794615 -0.123253755 0.2005301 -0.35941288 0.07571853 -0.051904183
0.23473431 -0.008397002 -0.13232298 -0.042558346 -0.038313504 -0.097804 -0.012318376 -0.17538731
-0.06932265 -0.026581088 -0.07255823 -0.17268084 -0.004703824 -0.15419048 -0.04484613 -0.09372225
-0.052708674 -0.0045876917 -0.13427992 0.0071263527 -0.0704009 -0.037791125 0.049590603 0.01598082
00000000: 77f2 5dbd fb2f 313c 0eda babd b741 283d
00000010: 97cb 8fbc f747 173d a017 06be 66d1 523e
00000020: 1c19 833c f6e9 383d 060e 7ebe d717 b9bd
00000030: 894e 30bc 11d2 093e 76bf 9d3d ab1b 1d3d
00000040: a84b d8bd bf8b d5bd c1a6 593c 9109 02be
00000050: db86 a3bd af02 2abd 61b9 89bd ce4d 283e
00000060: 83ce 5fbd c65f 943d 9ee5 86be deda a6bc
00000070: b0d5 46bc 8af9 66be 617b 933d c875 41bd
00000080: d1d4 79bd 11d0 c43d f338 d33d 5a2d c5bc
00000090: 7c37 003e 8013 103d d779 f03d 2504 babd
000000a0: 2002 42be 6062 6dbd e29f a23d eb8f 5f3d
000000b0: ea9b 063e b35a a9bd 1079 afbc e4d9 733c
000000c0: 11ee 833d 3eda 20bd c022 17bd 61d6 0dbd
000000d0: 3e5e 72bd 63bb 52be 9173 e33d 0272 0b3e
000000e0: b130 203e 1553 a2bc 97de 1cbc 1e3c 3ebd
000000f0: 82c3 c13d 8929 20bd 19df 4b3c 9bf2 be3d
00000100: 07c5 cbbe 0c81 68bd 42b0 8b3d 3de0 0e3e
00000110: e7e8 f9bd 9e9a c63d 9cad 533d 5bdb a3bc
00000120: 8218 1d3e bc4e 7a3d 02f4 44be e82b d63e
00000130: ab61 4e3d d061 a23d 5fc7 d83d 156f 00bd
00000140: 3e50 9dbc fcc2 b83d 8ecb 843c c414 a93d
00000150: 33e0 4b3d 5715 ecbc 6145 a9bc e0f7 8a3c
00000160: f159 8b3c 9b1c 0cbe 005f 9e3d 3409 88bd
00000170: af75 2ebc 1bbb b73c 2c7d 92bd 9d0b 983d
00000180: 09e5 dc3c aced ed3c cf4d 043e 23e8 8b3d
00000190: e3aa a3bd ebff 3ebd bcad ecbd 58c1 a33a
000001a0: 50fc 98bc d0fd 443d 4297 0fbd 16aa 3c3c
000001b0: 0207 84bd c431 b83c 688f 073e b279 90bd
000001c0: 3de0 af3d 462a ee3b 6dc6 87bd b20d 4cbd
000001d0: 13de efbd c5a8 83be 016f 563c 0157 bf3d
000001e0: b5ba 53be ed64 273d de73 363e a56f 15be
000001f0: 1c05 a2bb 72bd c5bd 9512 afbd 88c0 85bd
00000200: 4a49 a53e 5a80 38bd 6698 123e 5ed5 9abd
00000210: 42c0 2bbe 1558 0fbd 1e64 e03c 3037 c9be
00000220: fb00 433d 122e 263e 149c 0f3b d728 fd3d
00000230: 5fda f9bc 14ac 1bbe 6244 843d 8c8e 5e3d
00000240: b7af 61bd 81a6 883d 1a50 9e3c fe40 963b
00000250: 13ec 05be bb78 59bd c98c debc 428f bbbc
00000260: b35b 5ebe 71e9 36bd 3e32 5e3d 30a3 c53d
00000270: 3470 0f3d 9ebd 24bd 7803 05be 108a 083e
00000280: 1823 a0bd 5f93 5f3c c827 2bbd 5cf4 4bbe
00000290: 0527 133e 18a5 d0bd fb21 90bd d452 983e
000002a0: 514f 8c3c 6198 c8bb 3ea9 283d 0b11 2fbe
000002b0: b2d4 8abe fb2c 0abe 8c94 a73d 682e 0d3e
000002c0: 77d7 febb dece 1c3c 0a17 4fbc d795 113d
000002d0: d283 bebd 8906 51be 83f7 303e 3f14 47bd
000002e0: 6b4d 97bd 9ea2 f9bc bb29 c5bd 7d58 c6bc
000002f0: 7810 adbb aaa5 163e d882 b6bd f762 cabd
00000300: d8b8 41be 09d4 fabd 821a 353e 62e8 90bd
00000310: 7443 25bd 2889 2bbe 9cc1 7a3d 9fbe b63d
00000320: 0102 083e fe5d f13c 3cd1 d4bd 0866 44bc
00000330: 3eae d6bc f78d b8bd 2f01 0d3d a331 f83d
00000340: 4c3e 0d3e 6de9 763d 4fb2 29be fda4 da3d
00000350: e952 debc dcd0 22be a221 153d 0b8d 1cbd
00000360: ac94 efbc cff2 b2bc 9119 e7bd 219e efbb
00000370: 9d64 31be f819 c73d 4eb3 c7bb 8473 15be
00000380: 2a39 83be e87f d73d 1c1d b43d 776c fcbd
00000390: c357 4d3e f704 b8be 5112 9b3d 7b99 54bd
000003a0: 315e 703e 9493 09bc ad7f 07be a951 2ebd
000003b0: 9fee 1cbd 774d c8bd 04d3 49bc bb98 33be
000003c0: 09f9 8dbd 95c0 d9bc 6999 94bd 3fd3 30be
000003d0: 8922 9abb 1ce4 1dbe 93b0 37bd 73f1 bfbd
000003e0: 0de5 57bd 5954 96bb ad80 09be 2e84 e93b
000003f0: 592e 90bd deca 1abd 841f 4b3d 35ea 823c

fc2.bias f4 [64]
0.40986168 0.1982598 -0.038567603 -0.24019305 1.2585318 -0.040578008 -0.8863217 -0.13320662
-0.8430363 -0.06268677 -0.25558278 0.4905061 0.04336953 0.4209964 -1.0130103 0.037267756
-0.41530433 0.23568626 0.9732583 0.13186878 0.24477299 -0.17822775 1.415772 0.059093054
-0.15287186 0.110170536 -0.23584737 -0.034855362 0.41937223 -0.31637424 0.016824313 0.47333118
-0.06593032 -0.02545621 0.6598652 -0.8518001 -0.8060432 -0.77200454 0.2187316 -0.9172468
-0.20675556 0.20338474 0.043423336 0.28416505 -0.327671 -0.90053946 0.46344796 -1.252059
-1.0905262 -0.6181649 -0.4924853 1.2281648 -0.3994842 -0.38926864 -0.36644736 0.47411153
-0.62165004 -0.67640376 0.14953071 -1.0051036 -0.11308999 1.1689162 -0.5308819 0.053105645
00000000: 64d9 d13e 9e04 4b3e 10f9 1dbd 2bf5 75be
00000010: 9217 a13f 2035 26bd fbe5 62bf 5167 08be
00000020: 3ad1 57bf ec61 80bd bfdb 82be 9e23 fb3e
00000030: 40a4 313d d78c d73e 52aa 81bf 13a6 183d
00000040: c5a2 d4be bd57 713e 7527 793f 9c08 073e
00000050: c5a5 7a3e 5681 36be 0438 b53f 8f0b 723d
00000060: 718a 1cbe 17a1 e13d f981 71be 7fc4 0ebd
00000070: f5b7 d63e cefb a1be 24d3 893c 7758 f23e
00000080: 7a06 87bd 8b89 d0bc edec 283f 920f 5abf
00000090: d958 4ebf 17a2 45bf 2dfb 5f3e b0d0 6abf
000000a0: bbb7 53be 1744 503e abdc 313d 157e 913e
000000b0: 7ec4 a7be c189 66bf 0d49 ed3e 7843 a0bf
000000c0: 5d96 8bbf 0e40 1ebf 0927 fcbe 8134 9d3f
000000d0: 3189 ccbe 384e c7be fd9e bbbe bfbe f23e
000000e0: 7524 1fbf cc28 2dbf 941e 193e 3ca7 80bf
000000f0: ba9b e7bd 0c9f 953f e0e7 07bf 4e85 593d

cls.weight f4 [5, 64]
-0.22314496 -0.1157269 0.28044388 -0.82131994 0.11781241 -0.29202825 -0.21149306 0.10216071
-0.05494936 -0.09856395 -0.51117134 -0.0076729874 -0.16155519 -0.15153809 -0.004400005 0.25484145
-0.4462838 0.25600013 0.12669247 -0.07978081 -0.15345101 0.14506155 0.155347 0.16884038
0.023347413 -0.18964055 0.160312 -0.51004565 -0.011016134 0.25802115 -0.27250838 0.10760901
-0.31333038 0.12185248 0.31589246 -0.10584651 -0.03365896 -0.3012058 0.16082028 -0.14334035
-0.03219679 0.14926697 0.2734864 0.14233957 0.15961927 -0.16601792 -0.1823349 -0.33972615
0.010306893 -0.048416745 -0.026866635 0.26839444 0.015753068 0.03774764 -0.11808616 0.088811345
-0.029809518 0.09237514 -0.036345046 -0.09908537 -0.2723397 0.18010496 -0.03486849 0.44295773
-0.009948004 -0.14011379 0.1387299 -0.07991128 -0.0933907 0.03039826 0.06542924 0.122413844
0.100616485 -0.021909634 -0.029118676 0.08585068 -0.21556424 -0.25760558 0.04716632 0.11808482
0.19419436 0.053668067 -0.07582273 0.019353945 -0.0045506307 -0.20103946 -0.1622009 0.12153966
-0.16916849 0.046098392 0.2125256 -0.1261341 -0.011490995 0.12704003 -0.029804355 -0.012410766
-0.065278165 -0.035119593 -0.0905816 0.05805917 0.06432436 -0.032035604 0.02609254 0.013364327
0.10728617 0.03909864 -0.12729526 0.038567036 0.13630728 0.09296385 -0.03441193 0.20195778
0.041797046 -0.003958915 0.1287254 -0.15296707 -0.007593285 -0.03935689 -0.07718602 0.004523926
0.10580334 0.094606265 -0.097527534 0.053882882 -0.010595275 -0.121739835 0.07273873 0.108689494
0.266908 0.14901257 -0.09911269 -0.091230065 0.12423286 0.058654424 -0.13860969 -0.043376938
-0.18406032 0.012370687 0.0063156667 0.11422702 0.032304738 0.20763904 -0.2050769 -0.19656457
0.035272554 0.03538265 0.28533524 0.17491208 0.28355005 -0.24342193 0.12791161 -0.1530459
-0.21462913 0.25952783 -0.17087035 0.39176548 0.06352953 -0.24870254 0.08526553 0.14983207
0.0352131 -0.13161989 0.09666348 -0.16666053 -0.24246213 -0.15006913 -0.052120678 -0.14259197
-0.5116463 0.046575475 0.087058775 0.062103834 -0.27501547 -0.21483973 0.31316897 -0.06609367
-0.10826473 -0.13343643 -0.035218827 0.052661084 -0.31862643 -0.15978304 -0.02548706 0.021498151
-0.24454448 -0.0517345 0.4441713 -0.32302222 0.16033217 0.15067814 -0.16431226 0.06583302
-0.06786747 0.10974969 0.027207 0.30465326 -0.09207503 0.11841209 0.1971903 -0.33800057
0.116874546 0.2683456 0.1560367 -0.0132808825 -0.061486084 -0.14367358 -0.049005028 -0.03687831
-0.028425088 -0.020113988 -0.13558507 -0.112725444 0.054527342 0.013292195 -0.031893067 0.3296042
-0.10099412 0.010539745 -0.013025542 0.19291458 -0.1275623 -0.14138281 0.14690527 -0.27858403
0.23308532 -0.27871233 0.09286638 -0.13249841 0.1329024 0.072088115 0.14287701 0.12550429
0.05198019 -0.23114398 0.16275594 0.1722902 -0.019989567 0.028660402 0.05964323 0.13892576
-0.015146634 0.13099307 -0.112063974 -0.1619854 0.183465 0.08158965 -0.007974795 -0.10852976
-0.12134353 -0.009042061 -0.17954907 -0.024971869 0.19555184 0.07134744 0.16139674 -0.16179985
00000000: 1d80 64be 3a02 edbd 5796 8f3e 0642 52bf
00000010: a247 f13d ba84 95be a391 58be a239 d13d
00000020: 9512 61bd e5db c9bd 20dc 02bf af6d fbbb
00000030: b96e 25be cd2c 1bbe eb2d 90bb 947a 823e
00000040: 4f7f e4be 7312 833e acbb 013e 1f64 a3bd
00000050: 4322 1dbe 048b 143e 4913 1f3e 7ee4 2c3e
00000060: 1343 bf3c 2231 42be d428 243e 5a92 02bf
00000070: 047d 34bc 591b 843e 3886 8bbe 1d62 dc3d
00000080: d76c a0be cb8d f93d a8bc a13e 0ec6 d8bd
00000090: fadd 09bd a637 9abe 12ae 243e d0c7 12be
000000a0: c8e0 03bd 71d9 183e 6906 8c3e 77c1 113e
000000b0: 3c73 233e 9a00 2abe 00b6 3abe 96f0 adbe
000000c0: 3ede 283c a350 46bd 6b17 dcbc ff6a 893e
000000d0: 940c 813c 459d 1a3d 28d7 f1bd b9e2 b53d
000000e0: 1733 f4bc 2d2f bd3d 8bde 14bd 45ed cabd
000000f0: 1c70 8bbe 6f6d 383e 43d2 0ebd 5bcb e23e
00000100: f4fc 22bc fd79 0fbe 360f 0e3e 86a8 a3bd
00000110: a043 bfbd c605 f93c c4ff 853d 1cb4 fa3d
00000120: 0410 ce3d d57b b3bc 4a8a eebc 7bd2 af3d
00000130: dfbc 5cbe e1e4 83be 7931 413d 74d6 f13d
00000140: e3da 463e 0cd3 5b3d f348 9bbd 2a8c 9e3c
00000150: 751d 95bb 4add 4dbe fe17 26be c9e9 f83d
00000160: 813a 2dbe abd1 3c3d 50a0 593e 4c29 01be
00000170: ba44 3cbc c816 023e 4328 f4bc 8756 4bbc
00000180: 8fb0 85bd 90d9 0fbd d982 b9bd 74cf 6d3d
00000190: 7dbc 833d c437 03bd 06c0 d53c 0df6 5a3c
000001a0: dab8 db3d e525 203d b059 02be 78f8 1d3d
000001b0: 2394 0b3e d563 be3d 86f3 0cbd 05ce 4e3e
000001c0: 6133 2b3d c9b9 81bb 97d0 033e 66a3 1cbe
000001d0: 17d1 f8bb b134 21bd b413 9ebd 713d 943b
000001e0: 6caf d83d eec0 c13d 84bc c7bd 4cb4 5c3d
000001f0: ce97 2dbc bc52 f9bd 0bf8 943d 9998 de3d
00000200: 2aa8 883e c096 183e 98fb cabd d4d6 babd
00000210: cc6d fe3d 9f3f 703d b3ef 0dbe 04ac 31bd
00000220: 4f7a 3cbe 6cae 4a3c a7f3 ce3b dbef e93d
00000230: f951 043d 549f 543e aeff 51be 3948 49be
00000240: f479 103d 66ed 103d 7617 923e 271c 333e
00000250: 792d 913e 9943 79be 43fb 023e 10b8 1cbe
00000260: bdc7 5bbe d5e0 843e a3f8 2ebe 7c95 c83e
00000270: c51b 823d e1ab 7ebe b29f ae3d 946d 193e
00000280: 9d3b 103d 5dc7 06be 81f7 c53d 0fa9 2abe
00000290: fe47 78be b9ab 19be 7e7c 55bd a103 12be
000002a0: 40fb 02bf edc5 3e3d df4b b23d 9760 7e3d
000002b0: d4ce 8cbe f2fe 5bbe af57 a03e 1e5c 87bd
000002c0: e6b9 ddbd 8fa3 08be 9e41 10bd 26b3 573d
000002d0: 0123 a3be 2a9e 23be 3dca d0bc e41c b03c
000002e0: de69 7abe 8ee7 53bd 6c6a e33e 2b63 a5be
000002f0: 1e2e 243e 5f4b 1a3e 7941 28be 76d3 863d
00000300: 1afe 8abd 72c4 e03d 37e1 de3c 83fb 9b3e
00000310: d591 bcbd 0a82 f23d 41ec 493e 690e adbe
00000320: ec5b ef3d 9864 893e 16c8 1f3e 0f98 59bc
00000330: d5d8 7bbd 2b1f 13be 7fb9 48bd b60d 17bd
00000340: bbdb e8bc 17c6 a4bc d0d6 0abe 99dc e6bd
00000350: 1058 5f3d 82c7 593c 4ea2 02bd e2c1 a83e
00000360: 01d6 cebd e5ae 2c3c 1569 55bc 668b 453e
00000370: b19f 02be a8c6 10be 566e 163e 91a2 8ebe
00000380: ebad 6e3e 62b3 8ebe bb30 be3d aaad 07be
00000390: 9117 083e efa2 933d 5a4e 123e 3284 003e
000003a0: 2ee9 543d 02b1 6cbe 7ea9 263e d86c 303e
000003b0: 29c1 a3bc 38c9 ea3c 764c 743d 8e42 0e3e
000003c0: 9629 78bc 0c23 063e cc81 e5bd 80df 25be
000003d0: 40de 3b3e 7918 a73d b7a8 02bc da44 debd
000003e0: f582 f8bd 2725 14bc b6db 37be ce91 ccbc
000003f0: be3e 483e 9b1e 923d 3045 253e dcae 25be

cls.bias f4 [5]
1.370339 -0.56344205 1.0466776 -0.426085 -0.605898
00000000: 4567 af3f bd3d 10bf 88f9 853f d027 dabe
00000010: 221c 1bbf
